…
um_iters_decay=100000, num_workers=1, restore_epoch=101, result_dir='stargan/results', resume_iters=None, sample_dir='stargan/samples', sample_step=1000, selected_attrs=['Black_Hair', 'Blond_Hair', 'Brown_Hair', 'Male', 'Young'], test_iters=200000, use_tensorboard=True)
__________________________________________________________________________________________________
Layer (type)                    Output Shape         Param #     Connected to                     
==================================================================================================
input_1 (InputLayer)            (None, 128, 128, 8)  0                                            
__________________________________________________________________________________________________
conv2d_1 (Conv2D)               (None, 128, 128, 69) 27048       input_1[0][0]                    
__________________________________________________________________________________________________
instance_normalization_1 (Insta (None, 128, 128, 69) 2           conv2d_1[0][0]                   
__________________________________________________________________________________________________
activation_1 (Activation)       (None, 128, 128, 69) 0           instance_normalization_1[0][0]   
__________________________________________________________________________________________________
conv2d_2 (Conv2D)               (None, 64, 64, 138)  152352      activation_1[0][0]               
__________________________________________________________________________________________________
instance_normalization_2 (Insta (None, 64, 64, 138)  2           conv2d_2[0][0]                   
__________________________________________________________________________________________________
activation_2 (Activation)       (None, 64, 64, 138)  0           instance_normalization_2[0][0]   
__________________________________________________________________________________________________
conv2d_3 (Conv2D)               (None, 32, 32, 276)  609408      activation_2[0][0]               
__________________________________________________________________________________________________
instance_normalization_3 (Insta (None, 32, 32, 276)  2           conv2d_3[0][0]                   
__________________________________________________________________________________________________
activation_3 (Activation)       (None, 32, 32, 276)  0           instance_normalization_3[0][0]   
__________________________________________________________________________________________________
conv2d_4 (Conv2D)               (None, 32, 32, 276)  685584      activation_3[0][0]               
__________________________________________________________________________________________________
instance_normalization_4 (Insta (None, 32, 32, 276)  2           conv2d_4[0][0]                   
__________________________________________________________________________________________________
activation_4 (Activation)       (None, 32, 32, 276)  0           instance_normalization_4[0][0]   
__________________________________________________________________________________________________
conv2d_5 (Conv2D)               (None, 32, 32, 276)  685584      activation_4[0][0]               
__________________________________________________________________________________________________
instance_normalization_5 (Insta (None, 32, 32, 276)  2           conv2d_5[0][0]                   
__________________________________________________________________________________________________
add_1 (Add)                     (None, 32, 32, 276)  0           activation_3[0][0]               
                                                                 instance_normalization_5[0][0]   
__________________________________________________________________________________________________
conv2d_6 (Conv2D)               (None, 32, 32, 276)  685584      add_1[0][0]                      
__________________________________________________________________________________________________
instance_normalization_6 (Insta (None, 32, 32, 276)  2           conv2d_6[0][0]                   
__________________________________________________________________________________________________
activation_5 (Activation)       (None, 32, 32, 276)  0           instance_normalization_6[0][0]   
__________________________________________________________________________________________________
conv2d_7 (Conv2D)               (None, 32, 32, 276)  685584      activation_5[0][0]               
__________________________________________________________________________________________________
instance_normalization_7 (Insta (None, 32, 32, 276)  2           conv2d_7[0][0]                   
__________________________________________________________________________________________________
add_2 (Add)                     (None, 32, 32, 276)  0           add_1[0][0]                      
                                                                 instance_normalization_7[0][0]   
__________________________________________________________________________________________________
conv2d_8 (Conv2D)               (None, 32, 32, 276)  685584      add_2[0][0]                      
__________________________________________________________________________________________________
instance_normalization_8 (Insta (None, 32, 32, 276)  2           conv2d_8[0][0]                   
__________________________________________________________________________________________________
activation_6 (Activation)       (None, 32, 32, 276)  0           instance_normalization_8[0][0]   
__________________________________________________________________________________________________
conv2d_9 (Conv2D)               (None, 32, 32, 276)  685584      activation_6[0][0]               
__________________________________________________________________________________________________
instance_normalization_9 (Insta (None, 32, 32, 276)  2           conv2d_9[0][0]                   
__________________________________________________________________________________________________
add_3 (Add)                     (None, 32, 32, 276)  0           add_2[0][0]                      
                                                                 instance_normalization_9[0][0]   
__________________________________________________________________________________________________
conv2d_10 (Conv2D)              (None, 32, 32, 276)  685584      add_3[0][0]                      
__________________________________________________________________________________________________
instance_normalization_10 (Inst (None, 32, 32, 276)  2           conv2d_10[0][0]                  
__________________________________________________________________________________________________
activation_7 (Activation)       (None, 32, 32, 276)  0           instance_normalization_10[0][0]  
__________________________________________________________________________________________________
conv2d_11 (Conv2D)              (None, 32, 32, 276)  685584      activation_7[0][0]               
__________________________________________________________________________________________________
instance_normalization_11 (Inst (None, 32, 32, 276)  2           conv2d_11[0][0]                  
__________________________________________________________________________________________________
add_4 (Add)                     (None, 32, 32, 276)  0           add_3[0][0]                      
                                                                 instance_normalization_11[0][0]  
__________________________________________________________________________________________________
conv2d_12 (Conv2D)              (None, 32, 32, 276)  685584      add_4[0][0]                      WARNING:tensorflow:From /home/voldelord/starGAN-keras/solver.py:61: flatten (from tensorflow.python.layers.core) is deprecated and will be removed in a future version.
Instructions for updating:
Use keras.layers.flatten instead.
2019-06-24 14:36:44.422974: I tensorflow/core/platform/cpu_feature_guard.cc:141] Your CPU supports instructions that this TensorFlow binary was not compiled to use: AVX2 FMA
…
